models/LSTM_0.9413.pth (torch, 525040 bytes, 14 tensors)

lstm.weight_ih_l0 f4 [320, 1]
0.13272141 -0.39157182 -0.49392152 -0.6300059 -0.12090462 0.062939316 0.17051743 0.15088183
-0.5188472 -0.055536196 0.10773692 -0.26537472 -0.3071553 -0.060188 -0.3892933 0.23018539
-0.13571554 -0.050644033 0.110947914 -0.3483454 -0.17087598 -0.055326574 -0.052561004 0.15022816
-0.3680099 -0.30404016 -0.021782447 -0.07060949 -0.31283855 0.0013250344 0.32549334 0.1550777
0.17818573 0.16237357 -0.18415071 0.038220655 -0.1928399 -0.28126284 -0.059288103 -0.38961926
-0.018984953 -0.37102613 -0.15922739 0.10340486 0.076337814 0.014098042 -0.2551177 -0.19672246
-0.12693122 -0.21529734 -0.39348128 -0.36226222 -0.15607908 -0.4159876 -0.61573035 -0.28938937
-0.4245523 -0.52458185 0.49932775 -0.40461385 -0.013769081 0.24377032 -0.33591503 -0.18642229
0.13128023 -0.4004474 -0.017932167 -0.12836786 -0.63709545 -0.04016381 -0.13875128 -0.30831897
-0.40193152 0.04195556 -0.1731915 -0.01795584 -0.2792837 0.08217849 0.071497574 0.21194145
-0.024831003 -0.24920546 -0.20855016 -0.1397214 -0.2788807 -0.051602483 0.5396674 0.104829505
-0.3380913 -0.07480232 0.29542634 -0.22338742 -0.23189856 -0.62045896 0.18008089 0.14972767
0.46945637 -0.60547435 0.36495477 -0.38225982 -0.25063223 -0.23326835 -0.21425629 -0.0034501683
-0.24155664 -0.20514221 -0.45561782 -0.13147165 -0.17577623 0.14043555 0.07158455 0.1863544
0.22167483 0.15395808 -0.27449524 0.22558318 -0.38743654 -0.3776397 -0.429389 -0.19200616
-0.26604974 -0.23380452 0.5894721 0.36544895 -0.15093175 -0.20379233 0.605227 -0.28799915
0.32588395 0.077781856 -0.2990709 -0.5724082 -0.06350304 -0.14725438 -0.2550028 -0.4506459
-0.15298113 -0.31165287 0.97060674 -0.03779477 0.38324553 0.26904202 -0.30050528 0.47250864
0.2157132 -0.3458482 -0.58918715 0.008362927 -0.073097855 0.272716 -0.51185924 -0.24320897
-0.101385884 0.18508251 -0.25114518 -0.34574685 -0.16933466 0.12815109 0.26447847 0.15388809
-0.99994564 0.32999024 -0.38218236 -0.04278068 -0.28890884 -0.48353684 0.59522414 0.3533597
-0.40402484 0.11586484 -0.47803012 0.20112453 0.30640006 -0.36402166 0.5401641 -0.35342216
0.39847434 0.30380136 0.54731053 -0.434804 -0.31856236 0.19427352 -0.33131638 0.4331299
0.4978754 0.44945875 0.4072141 0.43933502 0.29053643 -0.5051814 -0.53767353 0.17674397
0.31110114 -0.53481036 0.6305918 0.14422885 -0.53719974 -0.37791044 0.586896 0.06091591
0.76893616 -0.20740852 0.3345499 -0.33756888 0.059358332 -0.3995453 0.19770719 -0.41721788
0.4508137 -0.31395435 -0.27330136 -0.37451532 -0.48157573 -0.14672604 -0.3018731 -0.47510415
0.41978705 -0.39750904 -0.10542184 0.28119302 0.3786442 -0.55108786 0.34711486 0.4719688
0.62694687 0.13535215 -0.5373236 -0.15146835 -0.38434726 0.07250708 -0.63490975 -0.40539584
-0.18244374 0.4477316 0.08043927 -0.45918885 0.39496598 0.109050035 -0.33160886 -0.3695808
0.27784106 -0.446839 -0.42780623 -0.30591843 -0.14880902 0.029953485 -0.105375126 0.26141724
-0.20598647 -0.039355747 -0.14827538 -0.056114133 -0.11561298 -0.39964738 0.33534974 0.24957532
00000000: 1fe8 073e 1a7c c8be 48e3 fcbe 1148 21bf
00000010: d79c f7bd 54e6 803d 1f9c 2e3e c480 1a3e
00000020: 2cd3 04bf ec79 63bd 2da5 dc3d 32df 87be
00000030: 7643 9dbe b187 76bd 7451 c7be b8b5 6b3e
00000040: 04f9 0abe 1e70 4fbd a938 e33d 545a b2be
00000050: 1dfa 2ebe 1e9e 62bd 354a 57bd 69d5 193e
00000060: cb6b bcbe 27ab 9bbe 1a71 b2bc b59b 90bd
00000070: 602c a0be c7ac ad3a 10a7 a63e b0cc 1e3e
00000080: 5276 363e 4245 263e 0192 3cbe 438d 1c3d
00000090: d377 45be af01 90be 15d8 72bd 2d7c c7be
000000a0: 5586 9bbc 23f7 bdbe 810c 23be edc5 d33d
000000b0: 0057 9c3d 79fb 663c ca9e 82be 9d71 49be
000000c0: 42fa 01be e876 5cbe 6176 c9be 6f7a b9be
000000d0: 32d3 1fbe 54fc d4be 81a0 1dbf d82a 94be
000000e0: eb5e d9be ff4a 06bf e3a7 ff3e 8c29 cfbe
000000f0: b697 61bc ed9e 793e 0efd abbe 7ce5 3ebe
00000100: 536e 063e 7107 cdbe 7be6 92bc dd72 03be
00000110: b018 23bf cf82 24bd d114 0ebe fcdb 9dbe
00000120: f8c9 cdbe 98d9 2b3d 1d59 31be 2018 93bc
00000130: 46fe 8ebe 324d a83d 526d 923d 2e07 593e
00000140: 636a cbbc b72f 7fbe 2c8e 55be 2013 0fbe
00000150: 73c9 8ebe 205d 53bd a527 0a3f dab0 d63d
00000160: 4e1a adbe f531 99bd 1f42 973e acbf 64be
00000170: d176 6dbe 66d6 1ebf 2067 383e 3652 193e
00000180: 965c f03e 5e00 1bbf 5adb ba3e 8fb7 c3be
00000190: de52 80be e6dd 6ebe 0066 5bbe 381c 62bb
000001a0: a05a 77be cd10 52be bd46 e9be 81a0 06be
000001b0: affe 33be 56ce 0f3e ec9a 923d b0d3 3e3e
000001c0: bafe 623e 30a7 1d3e a48a 8cbe 47ff 663e
000001d0: 155e c6be fe59 c1be e0d8 dbbe 439d 44be
000001e0: ac37 88be 746a 6fbe a5e7 163f 201c bb3e
000001f0: da8d 1abe f0ae 50be 28f0 1a3f a074 93be
00000200: 43da a63e 184c 9f3d d21f 99be 5889 12bf
00000210: e20d 82bd dac9 16be ba8f 82be 0fbb e6be
00000220: 16a7 1cbe f790 9fbe af79 783f b0ce 1abd
00000230: c238 c43e e0bf 893e d4db 99be a7ec f13e
00000240: ece3 5c3e 0413 b1be f8d4 16bf a804 093c
00000250: 54b4 95bd 6ea1 8b3e 3509 03bf c60b 79be
00000260: 67a3 cfbd 4586 3d3e 1a96 80be bb05 b1be
00000270: 1166 2dbe 0a3a 033e b969 873e d794 1d3e
00000280: 70fc 7fbf 7bf4 a83e 68ad c3be cb3a 2fbd
00000290: dceb 93be 2492 f7be 9c60 183f 90eb b43e
000002a0: 58dc cebe 8c4a ed3d 5dc0 f4be 97f3 4d3e
000002b0: 78e0 9c3e 0c61 babe 3248 0a3f c0f3 b4be
000002c0: d404 cc3e da8b 9b3e 8b1c 0c3f a19e debe
000002d0: 9b1a a3be a3ef 463e 4da2 a9be 34c3 dd3e
000002e0: 86e9 fe3e 751f e63e 5e7e d03e 85f0 e03e
000002f0: 31c1 943e 9153 01bf f9a4 09bf 5ffc 343e
00000300: a648 9f3e 55e9 08bf 776e 213f bab0 133e
00000310: ec85 09bf 7a7d c1be d13e 163f f682 793d
00000320: 00d9 443f e662 54be 204a ab3e d4d5 acbe
00000330: b921 733d 3491 ccbe c173 4a3e 959d d5be
00000340: 0ed1 e63e a0be a0be 28ee 8bbe 79c0 bfbe
00000350: 1891 f6be 5a3f 16be 1c8f 9abe da40 f3be
00000360: 54ee d63e 4e86 cbbe 68e7 d7bd 88f8 8f3e
00000370: a7dd c13e 1814 0dbf 0ab9 b13e e5a5 f13e
00000380: 977f 203f c199 0a3e 0a8e 09bf 851a 1bbe
00000390: 2ac9 c4be 987e 943d 7289 22bf 0b90 cfbe
000003a0: 88d2 3abe 143d e53e 58bd a43d cd1a ebbe
000003b0: fb38 ca3e a055 df3d a3c8 a9be b239 bdbe
000003c0: 2f41 8e3e 15c8 e4be 6b09 dbbe 57a1 9cbe
000003d0: 6461 18be 0361 f53c eace d7bd 7bd8 853e
000003e0: 1eee 52be 7e33 21bd 80d5 17be efd7 65bd
000003f0: 80c6 ecbd 959e ccbe f6b2 ab3e ac90 7f3e

lstm.weight_hh_l0 f4 [320, 80]
0.0778947 -0.31173614 -0.051037814 -0.46340495 0.18536013 -0.012665822 -0.12209433 0.028875267
-0.022911232 0.23056959 0.22073889 -0.04640917 0.1168099 -0.040098798 -0.28201976 0.0030718138
0.0103822965 -0.1419735 -0.10309129 0.38588345 0.13700455 -0.14636406 0.02598736 -0.09921524
-0.22894034 -0.12958372 -0.24615513 -0.15794289 0.27081957 0.14444788 0.10268488 -0.124277666
0.12851731 0.05120487 -0.2978531 0.33988863 0.3900647 0.17037173 -0.28309312 -0.14341545
-0.4857954 0.059831746 -0.27816033 0.25824717 0.21625724 0.08176527 -0.14598219 0.34554976
-0.11216384 -0.10298871 -0.1829297 -0.13382767 0.086728886 -0.2997461 -0.055034168 0.38084918
0.20163628 -0.32534882 -0.054365844 0.4620307 -0.09729633 -0.09718035 0.23559487 -0.07545318
-0.14819545 -0.2780413 0.23553318 -0.04071262 -0.2892898 -0.13845262 0.20455626 -0.034411155
0.20170069 -0.015365062 -0.012806044 0.11726675 -0.07526538 0.26972958 0.0480224 -0.00013434637
-0.4043313 -0.05011353 0.045054413 0.18171664 -0.046860937 -0.29165986 0.021923823 0.2204225
0.00079710863 0.23622087 -0.23151682 0.010602294 -0.03124612 0.059035894 0.19233158 -0.09289592
-0.09426703 -0.109284766 0.086141385 -0.1709561 -0.14037517 0.034519125 0.14518462 -0.13842519
-0.06313425 -0.10300441 0.2744619 0.14150989 -0.3685165 -0.14594693 -0.011699315 -0.022491923
0.16658436 -0.10017623 0.15535529 0.16497271 0.13834715 -0.14263926 0.26824424 0.18177496
0.15591761 0.060406767 -0.056053367 -0.097340554 -0.038261663 0.031784333 -0.140201 -0.1290805
-0.11204187 0.17330387 0.08383794 -0.21122673 -0.06755091 0.16010818 -0.019607304 0.06511085
-0.18471973 -0.007122489 -0.20647979 -0.116263255 0.098525144 -0.19998284 -0.084277526 0.09226171
0.023838788 -0.2701187 -0.30337432 0.025637273 0.05734192 -0.04042241 -0.19561961 -0.050957
0.22696762 -0.08737853 -0.24699661 -0.004651217 -0.07621078 0.1115496 -0.13440719 -0.2944492
-0.06795609 -0.14092448 0.051624272 0.11600616 -0.043920174 -0.25783324 0.035961676 0.32999074
-0.094182976 0.0034935246 -0.24645974 0.2196831 0.2702067 -0.33409464 0.05524895 -0.043713734
0.13411717 -0.011602932 0.09432214 -0.061104964 -0.06539606 0.2567296 -0.13392974 0.07065528
-0.09719279 0.34152043 0.41821894 0.29850695 0.05172674 -0.36247006 -0.34661418 -0.07888737
-0.16653557 0.043414295 0.25391284 -0.2104431 0.04987849 0.05975696 0.33446166 -0.012670479
0.24681218 -0.13851532 0.09903022 -0.3318526 -0.27922663 -0.12690784 0.112590805 -0.12869029
-0.094970874 0.1261675 0.0004209629 -0.10689098 -0.09490947 0.081033066 -0.0017120887 0.115426645
-0.06387209 0.0714596 -0.34867102 -0.074129395 0.3224979 -0.2555511 0.0767097 0.22662768
-0.032351352 -0.024692398 -0.2513503 0.17575836 0.25797445 -0.3731693 -0.31942064 -0.31656334
0.072726496 0.020819196 0.091389455 -0.3480944 -0.1345211 0.0013501479 0.0932286 -0.42680863
-0.3801463 -0.18963797 0.21544336 -0.4497247 0.043525558 -0.34368166 0.15163615 0.33829835
-0.24604578 0.43499148 -0.26398543 -0.13258077 0.041994862 0.08350124 0.12374351 -0.28952268
00000000: 4287 9f3d e19b 9fbe 070d 51bd 6a43 edbe
00000010: 0ccf 3d3e 4f84 4fbc 980c fabd d38b ec3c
00000020: 56b0 bbbc 6f1a 6c3e 6009 623e 8b17 3ebd
00000030: 073a ef3d a33e 24bd e564 90be 7c50 493b
00000040: 821a 2a3c 8061 11be 8721 d3bd 8492 c53e
00000050: ec4a 0c3e 76e0 15be 72e3 d43c 5c31 cbbd
00000060: 566f 6abe 98b1 04be 1710 7cbe c8bb 21be
00000070: dda8 8a3e 25ea 133e 734c d23d 4a85 febd
00000080: 0b9a 033e 33bc 513d 3480 98be e205 ae3e
00000090: 8fb6 c73e ed75 2e3e 95f1 90be 80db 12be
000000a0: 2dba f8be 2212 753d 086b 8ebe f938 843e
000000b0: 8a72 5d3e 8d74 a73d 5b7c 15be e6eb b03e
000000c0: 28b6 e5bd bfeb d2bd ec51 3bbe 1f0a 09be
000000d0: ea9e b13d 5278 99be 826b 61bd aafe c23e
000000e0: be79 4e3e 1f94 a6be b8ae 5ebd 4a8f ec3e
000000f0: 4c43 c7bd 7e06 c7bd c83f 713e 3287 9abd
00000100: 8cc0 17be 6e5b 8ebe 9c2f 713e 47c2 26bd
00000110: cb1d 94be 86c6 0dbe 3277 513e b6f2 0cbd
00000120: a08a 4e3e bebd 7bbc 71d0 51bc 8d29 f03d
00000130: bc24 9abd ff19 8a3e 23b3 443d 54df 0cb9
00000140: 8304 cfbe d843 4dbd fa8a 383d ed13 3a3e
00000150: 41f1 3fbd 7154 95be 9799 b33c 70b6 613e
00000160: 0ef5 503a e2e3 713e bf12 6dbe 3eb5 2d3c
00000170: ddf7 ffbc 9fcf 713d 92f2 443e 3740 bebd
00000180: 130f c1bd b1d0 dfbd e56a b03d 1e0f 2fbe
00000190: 82be 0fbe ed63 0d3d 47ab 143e 55bf 0dbe
000001a0: 884c 81bd faf3 d2bd 4586 8c3e f8e7 103e
000001b0: 32ae bcbe 1d73 15be 7cae 3fbc fb40 b8bc
000001c0: 1795 2a3e 3229 cdbd 7515 1f3e 9bee 283e
000001d0: e0aa 0d3e 0710 12be 4f57 893e 3723 3a3e
000001e0: dea8 1f3e 166d 773d 3798 65bd 7c5a c7bd
000001f0: 43b8 1cbd 4a30 023d da90 0fbe ae2d 04be
00000200: 3576 e5bd 9276 313e 3ab3 ab3d d24b 58be
00000210: 2258 8abd 66f3 233e 7f9f a0bc d658 853d
00000220: 2b27 3dbe c563 e9bb 706f 53be 6e1b eebd
00000230: 8dc7 c93d 4dc8 4cbe b299 acbd b5f3 bc3d
00000240: 9049 c33c 004d 8abe e153 9bbe 4205 d23c
00000250: 5cdf 6a3d f891 25bd 8250 48be 4ab8 50bd
00000260: 336a 683e 84f3 b2bd aeec 7cbe 3c69 98bb
00000270: 6614 9cbd 1e74 e43d 0aa2 09be 0cc2 96be
00000280: 902c 8bbd 824e 10be f973 533d a394 ed3d
00000290: a4e5 33bd b802 84be 8d4c 133d 8cf4 a83e
000002a0: 01e3 c0bd 9ef3 643b f15f 7cbe 9bf4 603e
000002b0: 8858 8a3e 740e abbe b94c 623d 2c0d 33bd
000002c0: 0356 093e 391a 3ebc f72b c13d 3349 7abd
000002d0: 5fee 85bd 1072 833e e124 09be b7b3 903d
000002e0: 030d c7bd c4db ae3e cb20 d63e e7d5 983e
000002f0: 6bdf 533d ad95 b9be 6a77 b1be b48f a1bd
00000300: 4d88 2abe 30d3 313d dd00 823e 657e 57be
00000310: 634d 4c3d b7c3 743d 8f3e ab3e d797 4fbc
00000320: 55bc 7c3e f6d6 0dbe 5bd0 ca3d 96e8 a9be
00000330: cbf6 8ebe 21f4 01be 0296 e63d 63c7 03be
00000340: 1780 c2bd 0e32 013e afb4 dc39 a8e9 dabd
00000350: e55f c2bd aaf4 a53d 2a68 e0ba ce64 ec3d
00000360: 5fcf 82bd 6959 923d 0285 b2be 27d1 97bd
00000370: 721e a53e 98d7 82be fa19 9d3d 1611 683e
00000380: da82 04bd b647 cabc fdb0 80be 00fa 333e
00000390: 3a15 843e 0c10 bfbe 1a8b a3be 9714 a2be
000003a0: a1f1 943d 058d aa3c 652a bb3d 6e39 b2be
000003b0: e6bf 09be 72f7 b03a a3ee be3d a986 dabe
000003c0: 89a2 c2be 7530 42be 2f9d 5c3e 5142 e6be
000003d0: db47 323d 0bf7 afbe 8246 1b3e 7135 ad3e
000003e0: 6df3 7bbe 34b7 de3e 1929 87be 41c3 07be
000003f0: ce02 2c3d b302 ab3d 3d6d fd3d 513c 94be

lstm.bias_ih_l0 f4 [320]
0.10128728 -0.31197333 -0.46653605 -0.3801018 -0.37717906 -0.22444017 -0.135499 -0.32451716
-0.3856018 -1.0032221 -0.050524395 -0.28727335 -0.51149637 -0.41869074 0.025374066 -0.43672237
-0.20553313 -0.31402096 -0.029081963 -0.4372608 -0.53865165 -0.5369832 -0.3248253 -0.033101793
-0.35549146 -0.14084585 -0.17920999 -0.11461524 -0.45039892 -0.21203265 -0.0045112283 -0.48396257
-0.3797445 -0.11455819 -0.2469256 -0.5655105 -0.3151508 -0.34425795 -0.28810263 -0.27969497
0.22236688 -0.5988538 -0.41296485 -0.079027146 -0.7632911 -0.4986364 -0.15793283 -0.36095923
-0.43085682 -0.426769 -0.5969497 -0.27369118 -0.3239195 -0.26301974 -0.55216706 -0.27647904
-0.43359035 -0.39695138 -0.15065522 -0.44772083 0.10229056 -0.19664483 -0.30050677 -0.15334661
-0.017335465 0.09519566 -0.25993404 -1.0122066 -0.27897373 -0.57444656 -0.22517382 -0.048773017
-0.10126023 -0.4106774 -0.46005225 -0.21809404 -0.18658352 -0.44572973 -0.46237618 -0.41792136
0.0699046 -0.18465646 -0.18354607 -0.1217379 -0.40883446 0.04315916 -0.051997717 -0.2528406
-0.21177192 -0.9068465 0.095652275 -0.063567095 -0.5355102 -0.28961846 0.13679153 -0.35318843
-0.06725524 -0.29978386 0.013847837 -0.09278835 -0.4680747 -0.31799105 -0.32021794 -0.12271323
-0.36494875 -0.051886912 0.06815401 -0.07920313 -0.3763929 0.19598702 0.015560602 -0.45963392
-0.3657554 -0.16730492 -0.06527222 -0.28187653 -0.24597314 -0.18948425 0.025127841 -0.2979626
0.12087167 -0.51667297 -0.010445705 0.04170876 -0.5960761 -0.32142073 0.09338213 -0.17757349
-0.17557435 -0.51201046 -0.4603588 -0.18546085 -0.4375083 -0.113004334 -0.38057658 -0.18916908
-0.2858761 -0.21522067 0.42121488 -0.20692994 0.11111623 -0.19269143 -0.18325822 0.0664291
-0.24592611 0.5795256 0.027503304 -0.8773176 0.07176501 -0.3628259 -0.02603182 -0.1950142
-0.25988021 -0.4439006 -0.16295637 0.25761944 -0.25168568 -0.46576938 -0.46600303 -0.2534256
-0.1628869 0.2368487 -0.079317 0.12247246 -0.21327208 0.16096438 0.08467463 -0.17253408
-0.06383037 0.06691624 -0.1349652 -0.19343464 -0.013316379 0.0046536587 0.1510118 0.051917817
-0.23562752 0.19126032 -0.080376014 -0.1948171 -0.017464144 0.0059856507 0.098587684 -0.23656467
0.07592752 -0.17003857 -0.21476503 -0.07262255 -0.048575457 0.14246859 0.08418664 0.063119166
-0.07636671 -0.011785704 0.10170222 0.06659874 -0.17947833 -0.2519559 0.09240743 0.2051133
0.021374846 -0.13532247 -0.06735246 0.21578981 -0.056454126 0.0212626 -0.25713962 -0.1560665
-0.13412546 0.013828538 -0.03173136 0.17432109 -0.13349023 0.04878432 0.06717735 0.0841019
0.062728405 0.062043842 -0.01142934 -0.06986905 -0.20318754 0.16227962 0.0011853554 -0.095799334
-0.06260046 -0.0954464 -0.119368955 -0.06595146 -0.14972213 0.09267596 -0.041594163 0.21246426
-0.316128 0.045110784 -0.026693111 0.02272888 0.051407605 -0.245377 0.084557846 0.042489596
0.0979551 -0.32481492 -0.37656596 0.022063239 -0.47000515 -0.08319173 -0.3110616 -0.32403708
-0.14672877 -1.0991962 -0.31547114 -0.094655834 -0.5634421 -0.2912564 0.27366766 -0.4009652
00000000: b56f cf3d f8ba 9fbe d0dd eebe b49c c2be
00000010: 9d1d c1be a5d3 65be 40c0 0abe 1d27 a6be
00000020: 996d c5be 9569 80bf abf2 4ebd 7e15 93be
00000030: 6df1 02bf a25e d6be 46dd cf3c 139a dfbe
00000040: 4777 52be 5bc7 a0be 4c3d eebc a6e0 dfbe
00000050: 13e5 09bf bb77 09bf 804f a6be bf95 07bd
00000060: fa02 b6be e539 10be d382 37be 65bb eabd
00000070: b09a e6be 161f 59be edd2 93bb f1c9 f7be
00000080: df6d c2be 7c9d eabd 11da 7cbe 4cc5 10bf
00000090: 725b a1be 9442 b0be 3082 93be 2e34 8fbe
000000a0: 25b4 633e 7c4e 19bf 2170 d3be fcd8 a1bd
000000b0: 0c67 43bf 454d ffbe 25b9 21be a6cf b8be
000000c0: 4499 dcbe 7781 dabe b2d1 18bf 4021 8cbe
000000d0: c7d8 a5be 86aa 86be d25a 0dbf a98e 8dbe
000000e0: 8eff ddbe 363d cbbe 5d45 1abe aa3b e5be
000000f0: b77d d13d 435d 49be 06dc 99be e506 1dbe
00000100: 1b03 8ebc f1f5 c23d 1316 85be fc8f 81bf
00000110: a5d5 8ebe ee0e 13bf f793 66be 37c6 47bd
00000120: 8661 cfbd 4f44 d2be f88b ebbe 0b54 5fbe
00000130: c00f 3fbe b036 e4be 92bc ecbe caf9 d5be
00000140: 252a 8f3d 9516 3dbe 80f3 3bbe b851 f9bd
00000150: c052 d1be a9c7 303d 8ffb 54bd 5374 81be
00000160: bdda 58be 1827 68bf 57e5 c33d 772f 82bd
00000170: 3217 09bf df48 94be 1413 0c3e 1dd5 b4be
00000180: 1ebd 89bd 457d 99be 0ae2 623c d207 bebd
00000190: 7da7 efbe b9cf a2be 9bf3 a3be 1351 fbbd
000001a0: 90da babe 5f87 54bd 5494 8b3d 4035 a2bd
000001b0: 92b6 c0be d2b0 483e e5f1 7e3c 2355 ebbe
000001c0: 4b44 bbbe fb51 2bbe 71ad 85bd 1f52 90be
000001d0: 62e0 7bbe 2908 42be e7d8 cd3c 8e8e 98be
000001e0: 918b f73d ae44 04bf 7624 2bbc ced6 2a3d
000001f0: 7198 18bf 4291 a4be 213f bf3d d3d5 35be
00000200: c3c9 33be 1e13 03bf 26b4 ebbe 73e9 3dbe
00000210: 1701 e0be d16e e7bd efda c2be 8ab5 41be
00000220: 5a5e 92be cf62 5cbe 7aa9 d73e 71e5 53be
00000230: e890 e33d e750 45be 0ba8 3bbe fb0b 883d
00000240: 0ed4 7bbe ca5b 143f 9c4e e13c e397 60bf
00000250: 89f9 923d 51c4 b9be af40 d5bc cdb1 47be
00000260: 050f 85be f046 e3be 09de 26be b2e6 833e
00000270: f2dc 80be 5379 eebe f397 eebe 00c1 81be
00000280: d3cb 26be 7788 723e f470 a2bd d7d2 fa3d
00000290: ff63 5abe d9d3 243e e469 ad3d c6ac 30be
000002a0: 7fb9 82bd 620b 893d 5134 0abe bb13 46be
000002b0: f12c 5abc b87d 983b d6a2 1a3e c7a7 543d
000002c0: 5748 71be bfd9 433e 2e9c a4bd 227e 47be
000002d0: f710 8fbc 4723 c43b 57e8 c93d 023e 72be
000002e0: e37f 9b3d 971e 2ebe 5deb 5bbe 22bb 94bd
000002f0: 0ff7 46bd 49e3 113e 0c6a ac3d 9f44 813d
00000300: 2666 9cbd d318 41bc 4149 d03d ec64 883d
00000310: 2bc9 37be 5d00 81be 1b40 bd3d 3909 523e
00000320: 4d1a af3c f991 0abe 16f0 89bd 01f8 5c3e
00000330: 713c 67bd e72e ae3c cea7 83be e6cf 1fbe
00000340: 2f58 09be 1891 623c bef8 01bd 3a81 323e
00000350: aab1 08be 11d2 473d 4794 893d 9e3d ac3d
00000360: c077 803d af21 7e3d 2042 3bbc 8117 8fbd
00000370: 6510 50be a12c 263e ed5d 9b3a 7132 c4bd
00000380: ac34 80bd 6779 c3bd b677 f4bd 8f11 87bd
00000390: c250 19be e5cc bd3d a45e 2abd 3b90 593e
000003a0: 87db a1be 16c6 383d 83ab dabc eb31 ba3c
000003b0: c890 523d 1c44 7bbe aa2c ad3d 9209 2e3d
000003c0: af9c c83d 244e a6be 41cd c0be f7bd b43c
000003d0: 84a4 f0be 6d60 aabd 7743 9fbe 30e8 a5be
000003e0: 1140 16be 76b2 8cbf 6f85 a1be ebda c1bd
000003f0: be3d 10bf 8f1f 95be 2b1e 8c3e 504b cdbe

lstm.bias_hh_l0 f4 [320]
0.19355582 -0.27056575 -0.3412189 -0.2477561 -0.36384547 -0.21283352 -0.17366146 -0.33917484
-0.34955746 -1.0785097 -0.08600454 -0.3492814 -0.63406426 -0.35915387 -0.07788502 -0.4647903
-0.26933795 -0.3401222 -0.09379371 -0.4503449 -0.47744712 -0.60060644 -0.32691526 -0.16609481
-0.23388629 -0.09293622 -0.16265984 -0.094244674 -0.5984804 -0.22991842 0.062467683 -0.3037544
-0.36278647 -0.2066461 -0.3581571 -0.74044776 -0.2077421 -0.36711457 -0.23099563 -0.20416367
0.02930299 -0.6175667 -0.35335588 -0.030928636 -0.6590954 -0.5555959 -0.1021612 -0.3898945
-0.3033848 -0.5288669 -0.616943 -0.28209358 -0.32955047 -0.36970994 -0.47337383 -0.3350812
-0.4410536 -0.33211213 -0.063745804 -0.48810267 0.22407897 -0.070100754 -0.4825167 -0.27387542
-0.069403596 0.12908736 -0.37713176 -1.0008571 -0.21790704 -0.40924105 -0.31618637 -0.21187188
-0.06637649 -0.47376785 -0.63107204 -0.1427035 -0.23973367 -0.4826864 -0.51208967 -0.5165125
0.10236143 -0.17645302 -0.26751888 -0.26075596 -0.34543362 -0.048025243 -0.013738001 -0.3271778
-0.23720779 -0.89162296 0.052830476 0.0957361 -0.39408976 -0.15829562 0.11683555 -0.3152969
-0.12871109 -0.22485104 0.045307335 -0.082657926 -0.46541217 -0.44594055 -0.26761726 -0.13815673
-0.43958467 -0.02460428 0.12757649 -0.10607795 -0.56467384 0.16478537 -0.09305179 -0.31815186
-0.47300762 -0.2887509 -0.07586988 -0.4617742 -0.22473447 -0.15917799 -0.0349909 -0.29251418
0.08794501 -0.5138386 -0.10790029 0.04284104 -0.67420566 -0.15135111 0.019398442 -0.2016765
-0.2180535 -0.35640272 -0.4241802 -0.17017697 -0.61524546 -0.2473342 -0.31158003 -0.13547073
-0.46002716 -0.29655978 0.4541396 -0.21967295 0.11481645 -0.22219673 -0.33745927 0.13021636
-0.17055605 0.535055 -0.048013292 -0.9009255 -0.05832292 -0.395623 0.06865875 -0.113711715
-0.2289677 -0.6485998 -0.07708152 0.29270017 -0.22897169 -0.409362 -0.47317433 -0.32380566
-0.2823745 0.17858587 -0.13883951 0.15395671 -0.018122282 0.20364223 -0.014212262 -0.03275284
0.021712461 0.017044868 -0.0010286355 -0.14980401 0.022849306 -0.06337511 0.22723125 0.15440261
-0.07778381 0.0683795 -0.07073113 -0.15236025 -0.106634974 0.17276967 -0.076777466 -0.15291588
0.1753774 -0.14195214 -0.104734726 -0.1776155 -0.017185627 0.098226056 0.26242906 0.21379113
0.080804564 0.07648553 0.12492986 0.115029156 -0.2644201 -0.17938599 0.09042474 0.11272487
0.04473792 -0.17702648 -0.18174677 0.19772094 -0.16565008 0.09008444 -0.17246635 -0.10625869
-0.011697643 0.0789524 -0.005880344 0.1701921 -0.08298226 0.015304221 0.06348633 0.042597316
0.009866735 0.01970377 0.18499811 -0.09274072 -0.26622435 0.08551714 -0.017114514 -0.15396942
-0.018705843 -0.1271654 -0.04498016 -0.035447944 -0.08974281 0.20516527 -0.09620367 0.21132675
-0.12554121 0.042671397 -0.1560227 0.104910836 0.2577155 -0.081970625 0.011543675 0.09771823
0.047914043 -0.37897325 -0.3919929 0.031436753 -0.35468456 0.012837262 -0.28444323 -0.37187248
-0.24669793 -0.9064662 -0.24019411 -0.12455459 -0.44004545 -0.39971244 0.12161425 -0.498297
00000000: 7f33 463e 9887 8abe 3eb4 aebe c6b3 7dbe
00000010: f449 babe 08f1 59be 4fd4 31be 53a8 adbe
00000020: 32f9 b2be 9b0c 8abf 2623 b0bd 03d5 b2be
00000030: 0952 22bf 04e3 b7be 2e82 9fbd fff8 edbe
00000040: aae6 89be 7f24 aebe eb16 c0bd 9b93 e6be
00000050: f373 f4be 58c1 19bf 7061 a7be c214 2abe
00000060: e37f 6fbe 5855 bebd 4d90 26be 5a03 c1bd
00000070: 0336 19bf bc6f 6bbe 1dde 7f3d b285 9bbe
00000080: 26bf b9be 099b 53be 5e60 b7be fc8d 3dbf
00000090: 58ba 54be 71f6 bbbe 1e8a 6cbe 4810 51be
000000a0: d30c f03c da18 1ebf 10eb b4be 0d5e fdbc
000000b0: 7aba 28bf 883b 0ebf e439 d1bd 40a0 c7be
000000c0: 4155 9bbe d263 07bf faef 1dbf 926e 90be
000000d0: d7ba a8be 9f4a bdbe 0e5e f2be c38f abbe
000000e0: c7d1 e1be 9a0a aabe 298d 82bd 98e8 f9be
000000f0: f574 653e fc90 8fbd 6e0c f7be 6639 8cbe
00000100: 7923 8ebd 7a2f 043e 6a17 c1be 161c 80bf
00000110: 0623 5fbe 0b88 d1be 2ee3 a1be f1f4 58be
00000120: 66f0 87bd b391 f2be f08d 21bf de20 12be
00000130: be7c 75be ac22 f7be 4f18 03bf 2a3a 04bf
00000140: dfa2 d13d 1ab0 34be 3cf8 88be ce81 85be
00000150: addc b0be 1eb6 44bd 5a15 61bc d983 a7be
00000160: 99e6 72be 6741 64bf c564 583d 4a11 c43d
00000170: 22c6 c9be 3f18 22be 7a47 ef3d 986e a1be
00000180: d7cc 03be 5a3f 66be 2f94 393d 8f48 a9bd
00000190: 814a eebe 5252 e4be 2105 89be f578 0dbe
000001a0: 3e11 e1be ea8e c9bc 69a3 023e 653f d9bd
000001b0: 778e 10bf 7fbd 283e f091 bebd cde4 a2be
000001c0: 0e2e f2be 28d7 93be ab61 9bbd ab6d ecbe
000001d0: cb20 66be 8eff 22be 9e52 0fbd 6bc4 95be
000001e0: 831c b43d ed8a 03bf d4fa dcbd 167a 2f3d
000001f0: be98 2cbf c9fb 1abe 7be9 9e3c 4984 4ebe
00000200: 6b49 5fbe 6b7a b6be 262e d9be df42 2ebe
00000210: ba80 1dbf 2d45 7dbe 6b87 9fbe d7b8 0abe
00000220: ae88 ebbe afd6 97be fc84 e83e f2f1 60be
00000230: e324 eb3d 8a87 63be 76c7 acbe 7057 053e
00000240: 3fa6 2ebe 5df9 083f 96a9 44bd 0ea3 66bf
00000250: 04e4 6ebd 198f cabe f59c 8c3d b0e1 e8bd
00000260: 8276 6abe a30a 26bf eadc 9dbd ccdc 953e
00000270: 8e77 6abe e597 d1be e843 f2be dbc9 a5be
00000280: 6493 90be 37df 363e f22b 0ebe d4a6 1d3e
00000290: 2e75 94bc 9787 503e 8cda 68bc d827 06bd
000002a0: 55de b13c aea1 8b3c 48d3 86ba 3966 19be
000002b0: 782e bb3c cfca 81bd 4faf 683e b81b 1e3e
000002c0: 1e4d 9fbd 8d0a 8c3d 7cdb 90bd 5304 1cbe
000002d0: 7063 dabd 88ea 303e 813d 9dbd fb95 1cbe
000002e0: 2296 333e e75b 11be 297f d6bd d6e0 35be
000002f0: dfc8 8cbc be2a c93d 1a5d 863e 10ec 5a3e
00000300: dd7c a53d 72a4 9c3d 3adb ff3d 6894 eb3d
00000310: 1262 87be f6b0 37be 9b30 b93d 4cdc e63d
00000320: 1c3f 373d 6e46 35be d31b 3abe 5c77 4a3e
00000330: 2da0 29be 317e b83d 059b 30be 289e d9bd
00000340: 79a7 3fbc ccb1 a13d e7af c0bb d646 2e3e
00000350: 9af2 a9bd 8ebe 7a3c 1f05 823d 867a 2e3d
00000360: 16a8 213c cd69 a13c 2570 3d3e d9ee bdbd
00000370: 8f4e 88be 9c23 af3d bd33 8cbc 29aa 1dbe
00000380: ff3c 99bc a637 02be 1e3d 38bd dd31 11bd
00000390: 14cb b7bd d816 523e 6e06 c5bd 0a66 583e
000003a0: e08d 00be 34c8 2e3d 6ac4 1fbe 7edb d63d
000003b0: 49f3 833e 37e0 a7bd af21 3d3c 7f20 c83d
000003c0: 8441 443d c808 c2be 4bb3 c8be d3c3 003d
000003d0: 3799 b5be 6153 523c 8ba2 91be 1266 bebe
000003e0: 629e 7cbe 2b0e 68bf 72f5 75be 7a16 ffbd
000003f0: a34d e1be 1ca7 ccbe e410 f93d c920 ffbe

lstm.weight_ih_l1 f4 [320, 80]
0.40218768 -0.14293882 0.1481714 -0.020090137 0.1387706 -0.16807537 -0.23705475 0.26497933
0.17766735 -0.20709246 0.24179977 0.4511876 0.0038688688 -0.1783867 -0.07269399 -0.017885532
0.39757928 -0.24822116 -0.05340294 0.049112722 0.1918169 -0.28885436 0.28398317 0.24725685
-0.18888095 0.18548748 0.3377336 0.06098386 -0.1724525 0.108303554 -0.0038310685 -0.028893543
-0.008416565 0.067470595 -0.26884902 -0.3277319 0.27060908 0.47243023 0.052728888 -0.12613074
-0.025150236 0.16730843 0.12499058 -0.42624962 -0.04659613 0.010964351 0.69935006 0.30465993
-0.15713029 0.009614817 -0.106967404 -0.025272356 0.060091827 0.10365509 0.35133997 0.2359888
0.011242336 0.30981785 -0.25333437 -0.13652715 0.5183781 0.086999126 -0.01705729 -0.00413236
-0.045796253 0.05364037 0.09570386 -0.07241693 0.2717333 0.086889096 0.13414398 -0.2612147
0.28094885 0.034776133 0.16700308 -0.16555762 -0.18709259 -0.33728167 -0.12730205 -0.17679921
0.32910123 -0.32472423 0.38233694 -0.23622082 0.24924296 0.02958888 -0.21780394 -0.13418397
0.17416134 -0.079936065 0.23451638 -0.19707899 -0.14732417 0.23879917 -0.16519798 0.053152587
-0.23102802 -0.20442033 -0.14525504 0.26577678 0.22548024 -0.3881829 0.40379882 -0.2105752
-0.6087589 -0.29255185 -0.10520443 -0.03708944 -0.023679228 0.30424008 -0.13351491 -0.06848419
0.018169578 0.12532957 -0.32946032 -0.10492752 0.48217013 0.3671873 -0.046704985 -0.08746193
-0.2928106 0.2871446 -0.16555108 -0.06685314 0.10016921 0.32112184 -0.17344353 0.22488655
-0.36839327 0.47139075 0.22338825 -0.0327784 0.5060671 -0.06230106 -0.3397685 0.22045241
-0.15724331 -0.013573231 -0.30711773 -0.016718833 -0.022198278 -0.034780733 -0.43949622 -0.022665178
-0.15050353 -0.21708679 0.16464204 0.17664322 0.042144317 -0.35934332 0.03577677 0.04428136
0.3929644 -0.285761 -0.036404192 0.109285034 -0.27120793 0.22679962 0.28324357 0.09225984
0.08079278 -0.28316444 0.5572551 0.3408288 0.3485972 0.1602718 -0.14841554 -0.16020714
0.2879018 -0.21758336 0.04515418 -0.28735822 -0.38334298 0.50056744 0.05866219 0.25702596
-0.27254927 -0.39790717 -0.2765459 0.16353762 0.20918433 -0.32069236 0.5392582 0.030020693
-0.3495112 -0.43692142 -0.13107006 -0.24344848 -0.43145233 0.06458736 0.07273865 -0.28159413
-0.102981165 0.3865428 -0.18973061 0.00626455 0.31686738 -0.11763969 0.09307176 0.16527566
-0.022521188 0.28670925 -0.36467984 -0.0128519 0.14736511 0.40349278 -0.3663586 0.033606444
-0.4679729 0.5086974 0.43539548 0.057728276 0.33664754 0.5577065 0.31766674 0.32105038
-0.2716253 0.07681716 -0.028623719 -0.2292738 0.008335679 0.033290636 -0.4489235 -0.32685456
-0.36551812 -0.49152052 -0.3660612 0.35752568 0.2000909 -0.46216935 -0.20585732 -0.012900319
0.35909745 -0.26207024 -0.5591351 -0.032319445 -0.248008 0.3272008 0.40316728 0.06256643
0.3520678 -0.5084481 0.5048965 -0.32266155 -0.024721561 -0.14215945 -0.13683863 0.090588525
0.27839518 0.014743952 0.03662724 -0.047395304 -0.2494185 0.100299396 -0.016352484 -0.31260097
00000000: 8beb cd3e 8e5e 12be 3eba 173e 1294 a4bc
00000010: e119 0e3e f31b 2cbe 7bbe 72be 5fab 873e
00000020: 6eee 353e 0c10 54be 5c9a 773e 1002 e73e
00000030: d98c 7d3b 01ab 36be 96e0 94bd ae84 92bc
00000040: 838f cb3e b02d 7ebe 0bbd 5abd 6c2a 493d
00000050: a66b 443e b8e4 93be 3e66 913e e630 7d3e
00000060: 026a 41be 6ef0 3d3e 6beb ac3e 36ca 793d
00000070: 6397 30be 41ce dd3d aa12 7bbb 27b2 ecbc
00000080: a2e5 09bc 062e 8a3d 94a6 89be 7acc a7be
00000090: 468d 8a3e 60e2 f13e 3ffa 573d 6b28 01be
000000a0: de07 cebc e752 2b3e 10fb ff3d 643d dabe
000000b0: 95db 3ebd d2a3 333c 9b08 333f 63fc 9b3e
000000c0: c3e6 20be 7787 1d3c ba11 dbbd f907 cfbc
000000d0: d922 763d 1f49 d43d d5e2 b33e 0ca7 713e
000000e0: c631 383c 72a0 9e3e 0bb5 81be c6cd 0bbe
000000f0: 6db4 043f 992c b23d bbbb 8bbc c068 87bb
00000100: da94 3bbd 01b6 5b3d 6300 c43d 544f 94bd
00000110: a120 8b3e e9f2 b13d 0a5d 093e efbd 85be
00000120: 87d8 8f3e 6b71 0e3d db02 2b3e f087 29be
00000130: 3395 3fbe 2fb0 acbe 785b 02be da0a 35be
00000140: f57f a83e 4142 a6be abc1 c33e dfe3 71be
00000150: 8c39 7f3e 6164 f23c ff07 5fbe 8667 09be
00000160: 5a57 323e 85b5 a3bd 1025 703e 13cf 49be
00000170: 26dc 16be c587 743e a929 29be 87b6 593d
00000180: 9c92 6cbe 9053 51be bdbd 14be e513 883e
00000190: 4be4 663e e9bf c6be b8be ce3e 06a1 57be
000001a0: a0d7 1bbf 5bc9 95be 6c75 d7bd 19eb 17bd
000001b0: f1fa c1bc 5bc5 9b3e 22b8 08be 7041 8cbd
000001c0: 5ed8 943c 6556 003e 06af a8be 3de4 d6bd
000001d0: 01df f63e f9ff bb3e ba4d 3fbd 3e1f b3bd
000001e0: 45eb 95be 9e04 933e 3986 29be 4dea 88bd
000001f0: 8425 cd3d 156a a43e 2e9b 31be a948 663e
00000200: 0b9e bcbe 215a f13e e4bf 643e a542 06bd
00000210: 9d8d 013f 652f 7fbd 23f6 adbe 47be 613e
00000220: 6404 21be 4262 5ebc 893e 9dbe eff5 88bc
00000230: 2ad9 b5bc 3e76 0ebd a605 e1be 53ac b9bc
00000240: 991d 1abe 004c 5ebe ec97 283e f6e1 343e
00000250: 859f 2c3d d9fb b7be aa8a 123d 5f60 353d
00000260: a132 c93e 444f 92be 901c 15bd d5d0 df3d
00000270: c4db 8abe 293e 683e 4d05 913e baf2 bc3d
00000280: af76 a53d eefa 90be 45a8 0e3f 1d81 ae3e
00000290: 557b b23e 4a1e 243e 3efa 17be 570d 24be
000002a0: dd67 933e 2cce 5ebe 97f3 383d 9e20 93be
000002b0: 8845 c4be 3025 003f c447 703d e898 833e
000002c0: 948b 8bbe 7dba cbbe 6d97 8dbe 6876 273e
000002d0: 6b34 563e ca31 a4be d30c 0a3f f5ed f53c
000002e0: 22f3 b2be 2ab4 dfbe 3b37 06be 8f4a 79be
000002f0: 52e7 dcbe 6146 843d 00f8 943d 1b2d 90be
00000300: cae7 d2bd f0e8 c53e be48 42be db46 cd3b
00000310: 713c a23e 14ed f0bd 689c be3d 063e 293e
00000320: 5b7e b8bc 8ecb 923e 51b7 babe c790 52bc
00000330: e1e6 163e 9b96 ce3e 5b93 bbbe e9a6 093d
00000340: 259a efbe fe39 023f 28ec de3e 7c74 6c3d
00000350: 115d ac3e dac5 0e3f 37a5 a23e b760 a43e
00000360: 7912 8bbe 5152 9d3d 4a7c eabc c0c6 6abe
00000370: 5f92 083c c35b 083d 4dd9 e5be 7b59 a7be
00000380: 3125 bbbe 94a8 fbbe 606c bbbe 9b0d b73e
00000390: a1e4 4c3e 76a1 ecbe 43cc 52be dc5b 53bc
000003a0: 9fdb b73e 122e 86be 7a23 0fbf 6561 04bd
000003b0: cff5 7dbe dd86 a73e f16b ce3e d422 803d
000003c0: 3b42 b43e a829 02bf e640 013f e533 a5be
000003d0: df84 cabc 3f92 11be 6d1f 0cbe 7a86 b93d
000003e0: d089 8e3e 9e90 713c 7206 163d 9421 42bd
000003f0: 9067 7fbe c569 cd3d a5f5 85bc 3c0d a0be

lstm.weight_hh_l1 f4 [320, 80]
-0.14337917 -0.12082086 -0.15677935 0.18077001 -0.12504067 0.104616635 0.087717906 -0.17348194
-0.13551302 0.18479517 -0.27150977 0.050555352 0.10427824 0.009864497 -0.5606502 -0.1752016
0.5591913 -0.1646569 0.3075973 -0.10025793 -0.35624766 -0.3799612 -0.2290643 -0.164252
-0.10117832 0.12746944 0.18476656 -0.024394142 0.017354747 -0.24430862 0.2118141 -0.26398572
0.27905154 -0.33940092 0.056484073 0.21478662 -0.30812073 0.045034625 -0.20787072 0.15973179
-0.26871932 -0.13475737 -0.12147948 0.0052553103 0.39567474 -0.27282092 -0.187897 -0.12330219
-0.20945491 -0.06171813 -0.19954345 -0.1545761 0.37629592 0.24617282 0.08995143 0.16321453
0.031888664 0.38212132 -0.028467404 0.03670979 -0.18168777 -0.11036832 -0.24512784 0.17752318
-0.44159 0.22478244 0.22958115 -0.33979985 -0.22183682 0.22521153 -0.44418156 0.4346613
0.05954269 0.6819765 0.09894512 -0.003927218 -0.33833128 -0.23469603 -0.18896349 0.13112502
-0.08465166 0.16043709 -0.09644725 -0.2632807 0.32960662 0.0045668855 0.05989079 0.0064259893
-0.013476433 -0.06895959 0.62142587 -0.07421505 -0.37764743 0.19856375 0.32688218 0.16829772
0.06737948 -0.0016062976 -0.11244972 -0.30961305 0.30623913 0.086555935 -0.12798807 0.2095184
-0.05547791 0.05447696 -0.36262837 -0.011361259 -0.31892106 0.097030446 -0.040357128 0.20769247
-0.13473266 -0.35355848 -0.07061449 -0.23015966 0.09109372 -0.010370858 0.04664701 -0.15630153
0.059594247 0.49484307 -0.04493098 0.091539584 -0.17950933 -0.06517215 -0.10716043 -0.17192507
0.14978898 -0.062444896 -0.14708725 -0.014207956 -0.23785013 0.054486845 -0.04226913 -0.29073298
0.044067368 -0.068597294 -0.079547085 0.3830618 -0.21484189 0.116999656 0.11910785 -0.0003482286
0.26888496 -0.1312046 -0.30340612 -0.043345224 0.123332344 -0.044432838 -0.19569866 -0.097731136
0.07057809 -0.21275808 -0.17835532 0.034338485 -0.15716611 0.017609488 0.4844021 -0.17707844
0.33794013 -0.032513544 -0.06429127 -0.10217253 0.19399825 -0.03724437 0.12298573 -0.14954169
0.11221598 -0.032582786 0.51890653 0.000386549 0.028003814 -0.047296382 0.11652965 0.21500604
0.09205876 0.18914872 0.08952741 -0.1610981 0.005009518 0.035960887 -0.17747281 0.030643703
-0.09163093 -0.040537637 -0.21872436 -0.18333136 -0.043541458 -0.24207598 0.0990638 -0.035991874
0.13587573 0.13893686 -0.2294518 -0.08591911 -0.23090337 -0.15850529 0.014781069 -0.07180386
0.1456269 0.14362326 -0.23178355 -0.30600792 0.27314758 -0.009240875 0.052037686 0.11484691
-0.29469445 0.0012564729 -0.0023343328 0.15276955 -0.5556977 0.055089254 0.15921193 0.21679582
0.0584515 0.33771136 0.080095954 -0.010154275 0.2305566 0.16677228 -0.17582966 0.30479544
-0.037281733 0.2015634 -0.048032396 -0.10103826 -0.07123798 0.12772885 0.22412337 -0.15904613
0.110844485 -0.10581541 -0.38007575 0.13628368 -0.10275372 0.20919687 0.49322474 0.2129716
0.22938731 -0.18776444 -0.27506098 0.103912696 0.20561625 -0.19171742 0.18494871 -0.26903164
-0.13070822 0.066493824 -0.074212275 0.10531551 -0.15875539 -0.3005923 0.06365567 0.21299951
00000000: fdd1 12be ed70 f7bd c48a 20be c61b 393e
00000010: a90a 00be 3f41 d63d 72a5 b33d 40a5 31be
00000020: edc3 0abe f23a 3d3e 5403 8bbe 2113 4f3d
00000030: d48f d53d b39e 213c c686 0fbf 0c68 33be
00000040: 2927 0f3f d29b 28be 657d 9d3e 0854 cdbd
00000050: 1866 b6be 468a c2be d58f 6abe ad31 28be
00000060: 9436 cfbd 5987 023e 7233 3d3e 39d6 c7bc
00000070: 8b2b 8e3c 0a2c 7abe cce5 583e 2329 87be
00000080: d8df 8e3e f5c5 adbe d85b 673d 06f1 5b3e
00000090: 00c2 9dbe 3a76 383d 10dc 54be bb90 233e
000000a0: 9495 89be d6fd 09be 3cca f8bd bd34 ac3b
000000b0: e195 ca3e 2faf 8bbe 1268 40be dc85 fcbd
000000c0: 597b 56be 26cc 7cbd 1e55 4cbe 3249 1ebe
000000d0: dca9 c03e ba14 7c3e 7538 b83d b621 273e
000000e0: b09d 023d 68a5 c33e 7934 e9bc 015d 163d
000000f0: 5c0c 3abe c908 e2bd cb02 7bbe a3c8 353e
00000100: 1618 e2be 5e2d 663e 5217 6b3e 3ffa adbe
00000110: 3129 63be da9d 663e c46b e3be ed8b de3e
00000120: 09e3 733d 0396 2e3f bda3 ca3d e4af 80bb
00000130: c239 adbe 2854 70be a57f 41be a345 063e
00000140: d95d adbd 9f49 243e 2386 c5bd bacc 86be
00000150: 33c2 a83e d0a5 953b 0c50 753d 1b91 d23b
00000160: 42cc 5cbc af3a 8dbd c415 1f3f 0ffe 97bd
00000170: 015b c1be 4c54 4b3e 1a5d a73e 3d56 2c3e
00000180: 41fe 893d 678a d2ba 0a4c e6bd 9a85 9ebe
00000190: 60cb 9c3e 3d44 b13d 4e0f 03be fe8b 563e
000001a0: ce3c 63bd 3c23 5f3d 6daa b9be 9324 3abc
000001b0: 9f49 a3be e6b7 c63d 844d 25bd 56ad 543e
000001c0: 5cf7 09be 9e05 b5be 549e 90bd f9ae 6bbe
000001d0: 588f ba3d 88ea 29bc ef10 3f3d 820d 20be
000001e0: 1919 743d 125c fd3e 8c09 38bd 1b79 bb3d
000001f0: 4bd1 37be fa78 85bd ed76 dbbd 200d 30be
00000200: 4862 193e 38c6 7fbd 0a9e 16be 7dc8 68bc
00000210: fc8e 73be 992d 5f3d 6522 2dbd f4da 94be
00000220: fc7f 343d bd7c 8cbd 95e9 a2bd ad20 c43e
00000230: 83ff 5bbe 849d ef3d d1ee f33d 7492 b6b9
00000240: 4aab 893e 805a 06be 0c58 9bbe c38a 31bd
00000250: ab95 fc3d 35ff 35bd 3b65 48be 4327 c8bd
00000260: 3f8b 903d 41dd 59be c7a2 36be 83a6 0c3d
00000270: 27f0 20be c641 903c 8d03 f83e 0d54 35be
00000280: 7d06 ad3e ec2c 05bd 24ab 83bd d53f d1bd
00000290: 7aa7 463e 8d8d 18bd f1df fb3d 7521 19be
000002a0: 7ed1 e53d 8775 05bd 0fd7 043f bba9 ca39
000002b0: 4168 e53c dab9 41bd 19a7 ee3d 8b2a 5c3e
000002c0: 4e89 bc3d 34b0 413e 265a b73d e6f6 24be
000002d0: e226 a43b b94b 133d 6fbb 35be 8108 fb3c
000002e0: ffa8 bbbd cb0a 26bd 47f9 5fbe 37bb 3bbe
000002f0: 8758 32bd c4e2 77be f6e1 ca3d 376c 13bd
00000300: 0223 0b3e 7745 0e3e 6af5 6abe 5cf6 afbd
00000310: ef71 6cbe 364f 22be 4c2c 723c e70d 93bd
00000320: 381f 153e fa11 133e ab58 6dbe 12ad 9cbe
00000330: 00da 8b3e 0a67 17bc 7825 553d db34 eb3d
00000340: 31e2 96be 3cb0 a43a 9bfb 18bb 9f6f 1c3e
00000350: 3442 0ebf 45a5 613d 7408 233e b9ff 5d3e
00000360: d76a 6f3d 81e8 ac3e 5909 a43d 1e5e 26bc
00000370: 0817 6c3e 5ac6 2a3e b10c 34be 260e 9c3e
00000380: bbb4 18bd a366 4e3e 9ebd 44bd 26ed cebd
00000390: 38e5 91bd 5acb 023e 9980 653e fddc 22be
000003a0: 6f02 e33d c0b5 d8bd 4a99 c2be f38d 0b3e
000003b0: 8b70 d2bd b437 563e f487 fc3e 3a15 5a3e
000003c0: 82e4 6a3e 5245 40be cbd4 8cbe 2ed0 d43d
000003d0: 118d 523e 9251 44be 3263 3d3e 84be 89be
000003e0: 60d8 05be ea2d 883d 9bfc 97bd a8af d73d
000003f0: c690 22be 3ce7 99be e75d 823d 8b1c 5a3e

lstm.bias_ih_l1 f4 [320]
-0.23872843 -0.5429288 -0.5511598 -0.2690925 -0.35158575 -0.10420453 -0.2555991 -0.13739604
-0.43676224 0.026263088 -0.49744886 -0.24717924 -0.035968892 -0.41378602 -0.55095136 -0.13573289
-0.37101725 -0.6336192 0.04933428 -0.11921568 -0.2599323 -0.4364606 -0.14491348 -0.2832736
-0.27657413 -0.44151202 -0.564615 -0.35838905 -0.48743293 -0.023512535 -0.57249737 -0.11417347
-0.48507825 -0.65701514 -0.17649195 -0.09610995 -0.3197423 -0.1301606 -0.1577134 -0.49869135
-0.06717235 -0.3236706 -0.22785804 -0.0043185423 0.021191001 -0.6175846 -0.5435739 -0.37023726
-0.30065805 -0.44730404 0.17291209 -0.45585775 -0.1324416 -0.29970858 -0.51487476 -0.1757911
-0.5165042 -0.03024685 -0.30031928 -0.08426 -0.468176 -0.50313634 -0.2697808 -0.6314371
-0.08620724 -0.40876675 -0.40195623 -0.16788025 -0.36175495 -0.5836543 -0.26317644 -0.36265925
-0.064128205 0.07765723 -0.3633264 -0.034225803 -0.38725457 -0.3620293 -0.054488096 0.2380869
0.1024315 -0.5177405 -0.10761217 -0.19077219 0.03029752 0.31080967 0.14699914 0.3548194
-0.07971844 -0.19940916 0.27169168 -0.051165998 -0.14296284 -0.2403122 -0.18083982 0.14101028
0.033139206 -0.34170443 -0.22216363 0.043852065 -0.08557747 0.0037235622 0.29718763 -0.04995156
0.006880388 -0.3973141 -0.2702221 -0.28809488 0.10829763 0.17737068 0.22708939 0.25169733
-0.35153764 0.10282054 0.10068324 0.05951138 -0.110272564 0.007934019 0.25819772 -0.2293294
0.3029147 0.25674528 0.1015464 0.34990543 0.22176293 -0.14172073 -0.19556914 -0.20002405
0.12390509 -0.16201401 0.1372363 -0.1421272 0.040803276 -0.38313842 -0.41339624 0.334409
-0.3219023 0.14308462 -0.028787963 0.47412473 -0.14132604 -0.19102386 0.17257586 -0.3441365
-0.40379107 0.08410049 -0.10709226 0.36600682 -0.1109419 -0.26165518 0.37140834 0.084954046
0.037343662 0.36088404 -0.037363134 0.016291937 -0.23243637 -0.08410027 0.3405271 -0.24638519
-0.045890823 -0.02633393 0.03942464 -0.24969947 0.13464682 -0.015732424 -0.027507285 -0.07830692
-0.11783301 0.023726083 0.31059545 -0.11844916 0.18091145 0.003947169 0.070606306 0.09562826
-0.1562279 -0.00292541 0.1311487 -0.13010462 0.23251796 0.1046766 -0.18204284 -0.0860358
-0.04502725 -0.092139594 -0.026378201 -0.03608498 -0.028221488 -0.06821026 0.06305742 -0.047471635
-0.03749217 0.026151497 -0.042835865 -0.2182243 0.013023041 -0.07102208 0.074137844 0.0585112
0.095834434 -0.10711537 0.11173648 0.19515337 0.056514725 -0.10334337 0.10437524 -0.023430571
-0.08477687 -0.04423058 0.2575081 0.0024238143 -0.01846054 0.14825837 0.018907176 -0.14989
-0.09940715 -0.047694396 0.02802586 0.13670817 -0.07629721 -0.010796349 0.04270035 0.0478723
0.27582344 0.12608291 -0.18153746 0.020072771 0.16127639 0.036972497 -0.043996774 -0.032221645
-0.08427364 -0.0037208302 -0.019016331 -0.13074923 0.06288449 0.20706595 0.23097908 0.08099104
-0.08280003 -0.37496614 -0.5584805 -0.31020835 -0.06014444 0.0030580598 0.06256938 -0.28084436
-0.26962128 -0.032207698 0.013468213 -0.2346566 -0.14668943 -0.35840556 -0.06931849 -0.030001499
00000000: 3a75 74be 62fd 0abf cf18 0dbf 7ec6 89be
00000010: 0c03 b4be 2f69 d5bd e3dd 82be 8cb1 0cbe
00000020: 4d9f dfbe b025 d73c 9eb1 febe 8e1c 7dbe
00000030: 1e54 13bd c3db d3be 260b 0dbf 90fd 0abe
00000040: f9f5 bdbe de34 22bf be12 4a3d 5a27 f4bd
00000050: d915 85be c477 dfbe 3364 14be 3d09 91be
00000060: 209b 8dbe dd0d e2be 9c8a 10bf c57e b7be
00000070: cf90 f9be 5c9d c0bc 308f 12bf c8d3 e9bd
00000080: 2d5c f8be 2532 28bf 4eba 34be 4bd5 c4bd
00000090: 43b5 a3be d248 05be 9f7f 21be 7954 ffbe
000000a0: a891 89bd 27b8 a5be 9e53 69be 8f82 8dbb
000000b0: c098 ad3c 061a 1ebf a927 0bbf bd8f bdbe
000000c0: daef 99be 0905 e5be de0f 313e 3066 e9be
000000d0: c59e 07be 6773 99be d5ce 03bf 9502 34be
000000e0: 9f39 04bf 3ec8 f7bc 73c3 99be 8290 acbd
000000f0: c4b4 efbe 8bcd 00bf b620 8abe dda5 21bf
00000100: 6c8d b0bd e049 d1be 35cd cdbe cde8 2bbe
00000110: f237 b9be 5e6a 15bf 10bf 86be 79ae b9be
00000120: a655 83bd c10a 9f3d eb05 babe 5b30 0cbd
00000130: 3b46 c6be e85b b9be e92e 5fbd 0dcd 733e
00000140: 9bc7 d13d a48a 04bf c563 dcbd c959 43be
00000150: 8132 f83c 7222 9f3e f186 163e e3aa b53e
00000160: 6c43 a3bd ea31 4cbe 2c1b 8b3e 7093 51bd
00000170: da64 12be 6714 76be 132e 39be 0065 103e
00000180: fabc 073d e2f3 aebe dd7e 63be 399e 333d
00000190: 3e43 afbd 0207 743b fa28 983e 029a 4cbd
000001a0: e174 e13b c16c cbbe 8d5a 8abe 2c81 93be
000001b0: 26cb dd3d a9a0 353e 1f8a 683e 79de 803e
000001c0: befc b3be 9393 d23d 0433 ce3d 34c2 733d
000001d0: 95d6 e1bd b0fd 013c 7e32 843e 54d5 6abe
000001e0: a317 9b3e 1e74 833e 8ff7 cf3d ce26 b33e
000001f0: d215 633e 3d1f 11be 4743 48be 1bd3 4cbe
00000200: f4c1 fd3d 00e7 25be ac87 0c3e cb89 11be
00000210: 5621 273d b82a c4be aca8 d3be a837 ab3e
00000220: 61d0 a4be c684 123e bcd4 ebbc 7ac0 f23e
00000230: c6b7 10be c29b 43be bab7 303e a932 b0be
00000240: b4bd cebe e13c ac3d 3053 dbbd 3f65 bb3e
00000250: 8235 e3bd abf7 85be 3c29 be3e 63fc ad3d
00000260: abf5 183d cbc5 b83e 160a 19bd ab76 853c
00000270: cd03 6ebe c33c acbd 9159 ae3e 664c 7cbe
00000280: 04f8 3bbd 41ba d7bc bb7b 213d 38b1 7fbe
00000290: dbe0 093e 49e1 80bc f556 e1bc 615f a0bd
000002a0: 6f52 f1bd 345d c23c 5e06 9f3e 7995 f2bd
000002b0: da40 393e 4157 813b 0a9a 903d c0d8 c33d
000002c0: 35fa 1fbe 3cb8 3fbb d84b 063e 253a 05be
000002d0: 3019 6e3e af60 d63d 7069 3abe 8a33 b0bd
000002e0: 7e6e 38bd afb3 bcbd 1917 d8bc d8cd 13bd
000002f0: c030 e7bc d2b1 8bbd 4024 813d 9e71 42bd
00000300: 6491 19bd aa3b d63c a974 2fbd 3176 5fbe
00000310: 985e 553c 0674 91bd 95d5 973d 71a9 6f3d
00000320: d844 c43d 4e5f dbbd 18d6 e43d 49d6 473e
00000330: fc7b 673d b0a5 d3bd b0c2 d53d 78f1 bfbc
00000340: 7f9f adbd 202b 35bd 1ad8 833e dbd8 1e3b
00000350: 8f3a 97bc 0bd1 173e 39e3 9a3c c47c 19be
00000360: fa95 cbbd 335b 43bd 7d96 e53c 3afd 0b3e
00000370: b641 9cbd 2be3 30bc 90e6 2e3d bf15 443d
00000380: bb38 8d3e e11b 013e f5e4 39be a76f a43c
00000390: a325 253e 7970 173d f635 34bd d8fa 03bd
000003a0: a897 acbd 2cd9 73bb 23c8 9bbc 20e3 05be
000003b0: 95c9 803d 1909 543e c885 6c3e a1de a53d
000003c0: 1093 a9bd 90fb bfbe 94f8 0ebf a1d3 9ebe
000003d0: 045a 76bd bb69 483b 6024 803d d5ca 8fbe
000003e0: cd0b 8abe 38ec 03bd c8a9 5c3c d249 70be
000003f0: c135 16be ef80 b7be daf6 8dbd b4c5 f5bc

lstm.bias_hh_l1 f4 [320]
-0.05113643 -0.6040459 -0.5903807 -0.36220562 -0.30764556 -0.15974988 -0.21895935 -0.11725312
-0.39780572 0.013417692 -0.50931376 -0.24107167 0.07787002 -0.31983837 -0.4960868 -0.23344067
-0.26119006 -0.49478066 -0.035068814 -0.09571675 -0.36858293 -0.36865163 -0.1802288 -0.24505162
-0.12393765 -0.3683268 -0.5889578 -0.39191237 -0.41666177 -0.16731244 -0.6373333 -0.035073813
-0.5601924 -0.5156532 -0.37051228 0.0004526057 -0.34045532 -0.10969992 -0.11000578 -0.3569174
-0.19040442 -0.18217373 -0.050070595 -0.031607296 0.1683094 -0.60818714 -0.5315339 -0.48053426
-0.29325515 -0.28689378 0.25988537 -0.39344594 -0.2170716 -0.41193643 -0.6159831 -0.16734771
-0.4735009 -0.22531141 -0.4427799 -0.021996748 -0.5696542 -0.4646984 -0.27921245 -0.6728892
0.06456528 -0.3659768 -0.33536255 -0.123862274 -0.42063802 -0.47545418 -0.19813238 -0.2592922
0.09760012 0.005064026 -0.25539285 -0.1315867 -0.39948562 -0.20817228 -0.006271159 0.38162026
-0.019120337 -0.5218912 -0.09466969 -0.12159083 0.12498302 0.2754338 0.23647282 0.34086287
-0.103931256 -0.013088763 0.07523696 0.008076534 0.028888661 -0.23473537 -0.20114335 0.11888336
-0.08362292 -0.29466945 -0.24434952 0.22654259 -0.1311133 0.06042988 0.23872049 0.008051043
0.0039825644 -0.3350287 -0.20938517 -0.35294724 0.06755124 0.1776748 0.19831915 0.3210103
-0.15205586 0.061859548 0.12643789 0.049472723 -0.050707 0.1336608 0.2661922 -0.30171213
0.40420958 0.109172374 0.12282797 0.3830735 0.24704067 -0.18069175 -0.25738207 -0.079992495
0.24144487 -0.06565823 0.18596677 -0.15120028 -0.11839888 -0.24448594 -0.41502684 0.18090108
-0.33201453 0.26359114 -0.09204492 0.45873 -0.2981701 -0.13821115 0.273308 -0.4423988
-0.23423341 -0.075604886 -0.08133114 0.1796163 -0.041877143 -0.29588193 0.46186116 0.0025252926
-0.0019439158 0.35733974 -0.12785459 0.08644413 -0.25585866 -0.16116591 0.26724023 -0.21452247
0.12812306 0.025124269 0.0017879001 -0.16384971 0.12934749 -0.010944996 -0.015219322 -0.04074008
-0.008773042 -0.040633477 0.30044356 -0.13984779 0.20643497 -0.16900724 0.21644749 0.11927198
0.051380005 0.14099516 0.19332248 0.024137052 0.19678597 0.10660764 -0.18216236 -0.047370862
0.060804263 -0.1849271 0.0023274901 -0.015821932 0.042348165 0.06323782 0.23773272 0.06251813
-0.02327747 -0.10477686 -0.07074877 -0.15363176 -0.047320366 -0.020356515 0.09018548 0.14165083
-0.04678066 -0.0038926983 -0.048067506 0.2093456 -0.041200675 -0.1220642 0.08109083 -0.013872861
-0.18712151 -0.11012461 0.1547959 -0.10951566 -0.19386956 0.16263442 0.0060205995 -0.19783418
-0.12679735 -0.08328761 0.06524309 -0.028655106 -0.050486807 -0.025399072 0.052195042 0.058269415
0.16289307 0.11459384 0.0077979714 0.1525097 0.1420075 -0.06625152 -0.11244845 -0.03979747
-0.07487944 -0.054644722 -0.043418113 -0.10534545 0.096123315 0.21045361 0.08311685 0.034032825
-0.23949754 -0.56058455 -0.47670344 -0.33009368 -0.050216366 -0.03889457 0.06267498 -0.30875826
-0.26786783 0.056391314 -0.08280572 -0.3294029 -0.20821182 -0.2781461 -0.00641047 -0.22384858
00000000: 6f74 51bd c1a2 1abf 3123 17bf 0473 b9be
00000010: b883 9dbe 7995 23be e136 60be 6722 f0bd
00000020: 31ad cbbe e1d5 5b3c 6362 02bf 7edb 76be
00000030: 517a 9f3d dbc1 a3be 17ff fdbe 120b 6fbe
00000040: b4ba 85be e453 fdbe 51a4 0fbd 2507 c4bd
00000050: e7b6 bcbe e8bf bcbe e68d 38be d0ee 7abe
00000060: 06d3 fdbd 5595 bcbe f0c5 16bf bda8 c8be
00000070: b154 d5be f453 2bbe 4628 23bf 8fa9 0fbd
00000080: c568 0fbf d901 04bf c9b3 bdbe b54b ed39
00000090: 2950 aebe 5aaa e0bd b64a e1bd e1bd b6be
000000a0: 60f9 42be c08b 3abe d316 4dbd a776 01bd
000000b0: 4d59 2c3e 27b2 1bbf 9b12 08bf 9608 f6be
000000c0: 8a25 96be bee3 92be b20f 853e bf71 c9be
000000d0: 0448 5ebe 55e9 d2be 12b1 1dbf 335d 2bbe
000000e0: b66e f2be 09b8 66be 0cb4 e2be 8632 b4bc
000000f0: dcd4 11bf f3ec edbe eff4 8ebe 7742 2cbf
00000100: cd3a 843d 5061 bbbe a4b4 abbe 81ab fdbd
00000110: de5d d7be bb6e f3be 37e3 4abe f2c1 84be
00000120: 92e2 c73d 21f0 a53b dac2 82be aabe 06be
00000130: 6189 ccbe 1d2b 55be 4b7e cdbb bb63 c33e
00000140: 41a2 9cbc a99a 05bf 2fe2 c1bd 9d04 f9bd
00000150: 19f7 ff3d a905 8d3e ee25 723e 9485 ae3e
00000160: e9d9 d4bd 4072 56bc d615 9a3d 7053 043c
00000170: eaa7 ec3c 785e 70be 86f8 4dbe 1e79 f33d
00000180: 7e42 abbd eade 96be c336 7abe c8fa 673e
00000190: 9142 06be 5285 773d 2573 743e 86e8 033c
000001a0: 2c80 823b e288 abbe 1169 56be 80b5 b4be
000001b0: 4e58 8a3d 62f0 353e 2d14 4b3e 765b a43e
000001c0: 88b4 1bbe 7060 7d3d ef78 013e e9a3 4a3d
000001d0: 25b2 4fbd 60de 083e 584a 883e 037a 9abe
000001e0: 8ff4 ce3e c495 df3d 3b8d fb3d 3622 c43e
000001f0: 3bf8 7c3e 4207 39be 95c7 83be 1bd3 a3bd
00000200: 533d 773e d277 86bd 136e 3e3e 3fd4 1abe
00000210: 1d7b f2bd 865a 7abe 667e d4be 223e 393e
00000220: cffd a9be 6bf5 863e 0c82 bcbd a9de ea3e
00000230: c0a9 98be 3987 0dbe 07ef 8b3e 1882 e2be
00000240: e2da 6fbe bcd6 9abd f190 a6bd 56ed 373e
00000250: 5e87 2bbd d67d 97be 1179 ec3e 617f 253b
00000260: feca feba 3cf5 b63e 50ec 02be 9f09 b13d
00000270: e8ff 82be ad08 25be b6d3 883e c7ab 5bbe
00000280: b132 033e 69d1 cd3c f957 ea3a 38c8 27be
00000290: ab73 043e a452 33bc 775a 79bc 12df 26bd
000002a0: cebc 0fbc 4a6f 26bd bdd3 993e 4234 0fbe
000002b0: b063 533e 3c10 2dbe 69a4 5d3e de44 f43d
000002c0: d773 523d 0961 103e 54f6 453e 11bb c53c
000002d0: 4382 493e 1b55 da3d c588 3abe f307 42bd
000002e0: e40d 793d 885d 3dbe ce88 183b ff9c 81bc
000002f0: 4575 2d3d d582 813d 3570 733e 8109 803d
00000300: 65b0 bebc 4095 d6bd bbe4 90bd a551 1dbe
00000310: 00d3 41bd b5c2 a6bc 2ab3 b83d ea0c 113e
00000320: 149d 3fbd a41c 7fbb 6fe2 44bd b15e 563e
00000330: 0ac2 28bd ccfc f9bd f312 a63d ff4a 63bc
00000340: c89c 3fbe 0389 e1bd d182 1e3e bf49 e0bd
00000350: be85 46be a389 263e 7348 c53b 0b95 4abe
00000360: 2ad7 01be b292 aabd 2b9e 853d 1dbe eabc
00000370: 41cb 4ebd b711 d0bc 78ca 553d e9ab 6e3d
00000380: 71cd 263e 2db0 ea3d 2086 ff3b 812b 1c3e
00000390: 6a6a 113e e0ae 87bd 5f4b e6bd ac02 23bd
000003a0: 645a 99bd 25d3 5fbd 31d7 31bd 5bbf d7bd
000003b0: 4ddc c43d 2781 573e 2b39 aa3d 0166 0b3d
000003c0: d83e 75be 7882 0fbf 7912 f4be 0a02 a9be
000003d0: adaf 4dbd ea4f 1fbd bd5b 803d 9015 9ebe
000003e0: f925 89be 94fa 663d 0c96 a9bd 7fa7 a8be
000003f0: 7b35 55be 2a69 8ebe ec0e d2bb 9038 65be
